…
.ops) is deprecated and will be removed in a future version.\n","Instructions for updating:\n","Colocations handled automatically by placer.\n","Most recent checkpoint 19/04/2019 21:31 (FRNet_run201904192131.h5)\n","Model FRNet_run201904192131.h5 loaded!\n","__________________________________________________________________________________________________\n","Layer (type)                    Output Shape         Param #     Connected to                     \n","==================================================================================================\n","input_1 (InputLayer)            (None, 112, 112, 3)  0                                            \n","__________________________________________________________________________________________________\n","block_0_cv_0 (Conv2D)           (None, 56, 56, 64)   9472        input_1[0][0]                    \n","__________________________________________________________________________________________________\n","block_0_bn_0 (BatchNormalizatio (None, 56, 56, 64)   256         block_0_cv_0[0][0]               \n","__________________________________________________________________________________________________\n","block_0_relu_0 (Activation)     (None, 56, 56, 64)   0           block_0_bn_0[0][0]               \n","__________________________________________________________________________________________________\n","block_0_mp_0 (MaxPooling2D)     (None, 28, 28, 64)   0           block_0_relu_0[0][0]             \n","__________________________________________________________________________________________________\n","block_1_cv_0 (Conv2D)           (None, 28, 28, 64)   4160        block_0_mp_0[0][0]               \n","__________________________________________________________________________________________________\n","block_1_bn_0 (BatchNormalizatio (None, 28, 28, 64)   256         block_1_cv_0[0][0]               \n","__________________________________________________________________________________________________\n","block_1_relu_0 (Activation)     (None, 28, 28, 64)   0           block_1_bn_0[0][0]               \n","__________________________________________________________________________________________________\n","block_1_cv_1 (Conv2D)           (None, 28, 28, 64)   36928       block_1_relu_0[0][0]             \n","__________________________________________________________________________________________________\n","block_1_bn_1 (BatchNormalizatio (None, 28, 28, 64)   256         block_1_cv_1[0][0]               \n","__________________________________________________________________________________________________\n","block_1_relu_1 (Activation)     (None, 28, 28, 64)   0           block_1_bn_1[0][0]               \n","__________________________________________________________________________________________________\n","block_1_cv_2 (Conv2D)           (None, 28, 28, 256)  16640       block_1_relu_1[0][0]             \n","__________________________________________________________________________________________________\n","block_1_cv_skip (Conv2D)        (None, 28, 28, 256)  16640       block_0_mp_0[0][0]               \n","__________________________________________________________________________________________________\n","block_1_bn_2 (BatchNormalizatio (None, 28, 28, 256)  1024        block_1_cv_2[0][0]               \n","__________________________________________________________________________________________________\n","block_1_bn_skip (BatchNormaliza (None, 28, 28, 256)  1024        block_1_cv_skip[0][0]            \n","__________________________________________________________________________________________________\n","add_1 (Add)                     (None, 28, 28, 256)  0           block_1_bn_2[0][0]               \n","                                                                 block_1_bn_skip[0][0]            \n","__________________________________________________________________________________________________\n","block_1_relu_2 (Activation)     (None, 28, 28, 256)  0           add_1[0][0]                      \n","__________________________________________________________________________________________________\n","block_2_cv_0 (Conv2D)           (None, 28, 28, 64)   16448       block_1_relu_2[0][0]             \n","__________________________________________________________________________________________________\n","block_2_bn_0 (BatchNormalizatio (None, 28, 28, 64)   256         block_2_cv_0[0][0]               \n","__________________________________________________________________________________________________\n","block_2_relu_0 (Activation)     (None, 28, 28, 64)   0           block_2_bn_0[0][0]               \n","__________________________________________________________________________________________________\n","block_2_cv_1 (Conv2D)           (None, 28, 28, 64)   36928       block_2_relu_0[0][0]             \n","__________________________________________________________________________________________________\n","block_2_bn_1 (BatchNormalizatio (None, 28, 28, 64)   256         block_2_cv_1[0][0]               \n","__________________________________________________________________________________________________\n","block_2_relu_1 (Activation)     (None, 28, 28, 64)   0           block_2_bn_1[0][0]               \n","__________________________________________________________________________________________________\n","block_2_cv_2 (Conv2D)           (None, 28, 28, 256)  16640       block_2_relu_1[0][0]             \n","__________________________________________________________________________________________________\n","block_2_bn_2 (BatchNormalizatio (None, 28, 28, 256)  1024        block_2_cv_2[0][0]               \n","__________________________________________________________________________________________________\n","add_2 (Add)                     (None, 28, 28, 256)  0           block_2_bn_2[0][0]               \n","                                                                 block_1_relu_2[0][0]             \n","__________________________________________________________________________________________________\n","block_2_relu_2 (Activation)     (None, 28, 28, 256)  0           add_2[0][0]                      \n","__________________________________________________________________________________________________\n","block_3_cv_0 (Conv2D)           (None, 28, 28, 64)   16448       block_2_relu_2[0][0]             \n","__________________________________________________________________________________________________\n","block_3_bn_0 (BatchNormalizatio (None, 28, 28, 64)   256         block_3_cv_0[0][0]               \n","__________________________________________________________________________________________________\n","block_3_relu_0 (Activation)     (None, 28, 28, 64)   0           block_3_bn_0[0][0]               \n","__________________________________________________________________________________________________\n","block_3_cv_1 (Conv2D)           (None, 28, 28, 64)   36928       block_3_relu_0[0][0]             \n","__________________________________________________________________________________________________\n","block_3_bn_1 (BatchNormalizatio (None, 28, 28, 64)   256         block_3_cv_1[0][0]               \n","__________________________________________________________________________________________________\n","block_3_relu_1 (Activation)     (None, 28, 28, 64)   0           block_3_bn_1[0][0]               \n","__________________________________________________________________________________________________\n","block_3_cv_2 (Conv2D)           (None, 28, 28, 256)  16640       block_3_relu_1[0][0]             \n","__________________________________________________________________________________________________\n","block_3_bn_2 (BatchNormalizatio (None, 28, 28, 256)  1024        block_3_cv_2[0][0]               \n","__________________________________________________________________________________________________\n","add_3 (Add)                     (None, 28, 28, 256)  0           block_3_bn_2[0][0]               \n","                                                                 block_2_relu_2[0][0]             \n","__________________________________________________________________________________________________\n","block_3_relu_2 (Activation)     (None, 28, 28, 256)  0           add_3[0][0]                      \n","__________________________________________________________________________________________________\n","block_4_cv_0 (Conv2D)           (None, 14, 14, 128)  32896       block_3_relu_2[0][0]             \n","__________________________________________________________________________________________________\n","block_4_bn_0 (BatchNormalizatio (None, 14, 14, 128)  512         block_4_cv_0[0][0]               \n","__________________________________________________________________________________________________\n","block_4_relu_0 (Activation)     (None, 14, 14, 128)  0           block_4_bn_0[0][0]               \n","__________________________________________________________________________________________________\n","block_4_cv_1 (Conv2D)           (None, 14, 14, 128)  147584      block_4_relu_0[0][0]             \n","__________________________________________________________________________________________________\n","block_4_bn_1 (BatchNormalizatio (None, 14, 14, 128)  512         block_4_cv_1[0][0]               \n","__________________________________________________________________________________________________\n","block_4_relu_1 (Activation)     (None, 14, 14, 128)  0           block_4_bn_1[0][0]               \n","__________________________________________________________________________________________________\n","block_4_cv_2 (Conv2D)           (None, 14, 14, 512)  66048       block_4_relu_1[0][0]             \n","__________________________________________________________________________________________________\n","block_4_cv_skip (Conv2D)        (None, 14, 14, 512)  131584      block_3_relu_2[0][0]             \n","__________________________________________________________________________________________________\n","block_4_bn_2 (BatchNormalizatio (None, 14, 14, 512)  2048        block_4_cv_2[0][0]               \n","__________________________________________________________________________________________________\n","block_4_bn_skip (BatchNormaliza (None, 14, 14, 512)  2048        block_4_cv_skip[0][0]            \n","__________________________________________________________________________________________________\n","add_4 (Add)                     (None, 14, 14, 512)  0           block_4_bn_2[0][0]               \n","                                                                 block_4_bn_skip[0][0]            \n","__________________________________________________________________________________________________\n","block_4_relu_2 (Activation)     (None, 14, 14, 512)  0           add_4[0][0]                      \n","__________________________________________________________________________________________________\n","block_5_cv_0 (Conv2D)           (None, 14, 14, 128)  65664       block_4_relu_2[0][0]             \n","__________________________________________________________________________________________________\n","block_5_bn_0 (BatchNormalizatio (None, 14, 14, 128)  512         block_5_cv_0[0][0]               \n","__________________________________________________________________________________________________\n","block_5_relu_0 (Activation)     (None, 14, 14, 128)  0           block_5_bn_0[0][0]               \n","__________________________________________________________________________________________________\n","block_5_cv_1 (Conv2D)           (None, 14, 14, 128)  147584      block_5_relu_0[0][0]             \n","__________________________________________________________________________________________________\n","block_5_bn_1 (BatchNormalizatio (None, 14, 14, 128)  512         block_5_cv_1[0][0]               \n","__________________________________________________________________________________________________\n","block_5_relu_1 (Activation)     (None, 14, 14, 128)  0           block_5_bn_1[0][0]               \n","__________________________________________________________________________________________________\n","block_5_cv_2 (Conv2D)           (None, 14, 14, 512)  66048       block_5_relu_1[0][0]             \n","__________________________________________________________________________________________________\n","block_5_bn_2 (BatchNormalizatio (None, 14, 14, 512)  2048        block_5_cv_2[0][0]               \n","__________________________________________________________________________________________________\n","add_5 (Add)                     (None, 14, 14, 512)  0           block_5_bn_2[0][0]               \n","                                                                 block_4_relu_2[0][0]             \n","__________________________________________________________________________________________________\n","block_5_relu_2 (Activation)     (None, 14, 14, 512)  0           add_5[0][0]                      \n","__________________________________________________________________________________________________\n","block_6_cv_0 (Conv2D)           (None, 14, 14, 128)  65664       block_5_relu_2[0][0]             \n","__________________________________________________________________________________________________\n","block_6_bn_0 (BatchNormalizatio (None, 14, 14, 128)  512         block_6_cv_0[0][0]               \n","__________________________________________________________________________________________________\n","block_6_relu_0 (Activation)     (None, 14, 14, 128)  0           block_6_bn_0[0][0]               \n","__________________________________________________________________________________________________\n","block_6_cv_1 (Conv2D)           (None, 14, 14, 128)  147584      block_6_relu_0[0][0]             \n","__________________________________________________________________________________________________\n","block_6_bn_1 (BatchNormalizatio (None, 14, 14, 128)  512         block_6_cv_1[0][0]               \n","__________________________________________________________________________________________________\n","block_6_relu_1 (Activation)     (None, 14, 14, 128)  0           block_6_bn_1[0][0]               \n","__________________________________________________________________________________________________\n","block_6_cv_2 (Conv2D)           (None, 14, 14, 512)  66048       block_6_relu_1[0][0]             \n","__________________________________________________________________________________________________\n","block_6_bn_2 (BatchNormalizatio (None, 14, 14, 512)  2048        block_6_cv_2[0][0]               \n","__________________________________________________________________________________________________\n","add_6 (Add)                     (None, 14, 14, 512)  0           block_6_bn_2[0][0]               \n","                                                                 block_5_relu_2[0][0]             \n","__________________________________________________________________________________________________\n","block_6_relu_2 (Activation)     (None, 14, 14, 512)  0           add_6[0][0]                      \n","__________________________________________________________________________________________________\n","block_7_cv_0 (Conv2D)           (None, 14, 14, 128)  65664       block_6_relu_2[0][0]             \n","__________________________________________________________________________________________________\n","block_7_bn_0 (BatchNormalizatio (None, 14, 14, 128)  512         block_7_cv_0[0][0]               \n","__________________________________________________________________________________________________\n","block_7_relu_0 (Activation)     (None, 14, 14, 128)  0           block_7_bn_0[0][0]               \n","__________________________________________________________________________________________________\n","block_7_cv_1 (Conv2D)           (None, 14, 14, 128)  147584      block_7_relu_0[0][0]             \n","__________________________________________________________________________________________________\n","block_7_bn_1 (BatchNormalizatio (None, 14, 14, 128)  512         block_7_cv_1[0][0]               \n","__________________________________________________________________________________________________\n","block_7_relu_1 (Activation)     (None, 14, 14, 128)  0           block_7_bn_1[0][0]               \n","__________________________________________________________________________________________________\n","block_7_cv_2 (Conv2D)           (None, 14, 14, 512)  66048       block_7_relu_1[0][0]             \n","__________________________________________________________________________________________________\n","block_7_bn_2 (BatchNormalizatio (None, 14, 14, 512)  2048        block_7_cv_2[0][0]               \n","__________________________________________________________________________________________________\n","add_7 (Add)                     (None, 14, 14, 512)  0           block_7_bn_2[0][0]               \n","                                                                 block_6_relu_2[0][0]             \n","__________________________________________________________________________________________________\n","block_7_relu_2 (Activation)     (None, 14, 14, 512)  0           add_7[0][0]                      \n","__________________________________________________________________________________________________\n","block_8_cv_0 (Conv2D)           (None, 7, 7, 256)    131328      block_7_relu_2[0][0]             \n","__________________________________________________________________________________________________\n","block_8_bn_0 (BatchNormalizatio (None, 7, 7, 256)    1024        block_8_cv_0[0][0]               \n","__________________________________________________________________________________________________\n","block_8_relu_0 (Activation)     (None, 7, 7, 256)    0           block_8_bn_0[0][0]               \n","__________________________________________________________________________________________________\n","block_8_cv_1 (Conv2D)           (None, 7, 7, 256)    590080      block_8_relu_0[0][0]             \n","__________________________________________________________________________________________________\n","block_8_bn_1 (BatchNormalizatio (None, 7, 7, 256)    1024        block_8_cv_1[0][0]               \n","__________________________________________________________________________________________________\n","block_8_relu_1 (Activation)     (None, 7, 7, 256)    0           block_8_bn_1[0][0]               \n","__________________________________________________________________________________________________\n","block_8_cv_2 (Conv2D)           (None, 7, 7, 1024)   263168      block_8_relu_1[0][0]             \n","__________________________________________________________________________________________________\n","block_8_cv_skip (Conv2D)        (None, 7, 7, 1024)   525312      block_7_relu_2[0][0]             \n","__________________________________________________________________________________________________\n","block_8_bn_2 (BatchNormalizatio (None, 7, 7, 1024)   4096        block_8_cv_2[0][0]               \n","__________________________________________________________________________________________________\n","block_8_bn_skip (BatchNormaliza (None, 7, 7, 1024)   4096        block_8_cv_skip[0][0]            \n","__________________________________________________________________________________________________\n","add_8 (Add)                     (None, 7, 7, 1024)   0           block_8_bn_2[0][0]               \n","                                                                 block_8_bn_skip[0][0]            \n","__________________________________________________________________________________________________\n","block_8_relu_2 (Activation)     (None, 7, 7, 1024)   0           add_8[0][0]                      \n","__________________________________________________________________________________________________\n","block_9_cv_0 (Conv2D)           (None, 7, 7, 256)    262400      block_8_relu_2[0][0]             \n","__________________________________________________________________________________________________\n","block_9_bn_0 (BatchNormalizatio (None, 7, 7, 256)    1024        block_9_cv_0[0][0]               \n","__________________________________________________________________________________________________\n","block_9_relu_0 (Activation)     (None, 7, 7, 256)    0           block_9_bn_0[0][0]               \n","__________________________________________________________________________________________________\n","block_9_cv_1 (Conv2D)           (None, 7, 7, 256)    590080      block_9_relu_0[0][0]             \n","__________________________________________________________________________________________________\n","block_9_bn_1 (BatchNormalizatio (None, 7, 7, 256)    1024        block_9_cv_1[0][0]               \n","__________________________________________________________________________________________________\n","block_9_relu_1 (Activation)     (None, 7, 7, 256)    0           block_9_bn_1[0][0]               \n","__________________________________________________________________________________________________\n","block_9_cv_2 (Conv2D)           (None, 7, 7, 1024)   263168      block_9_relu_1[0][0]             \n","__________________________________________________________________________________________________\n","block_9_bn_2 (BatchNormalizatio (None, 7, 7, 1024)   4096        block_9_cv_2[0][0]               \n","__________________________________________________________________________________________________\n","add_9 (Add)                     (None, 7, 7, 1024)   0           block_9_bn_2[0][0]               \n","                                                                 block_8_relu_2[0][0]             \n","__________________________________________________________________________________________________\n","block_9_relu_2 (Activation)     (None, 7, 7, 1024)   0           add_9[0][0]                      \n","__________________________________________________________________________________________________\n","block_10_cv_0 (Conv2D)          (None, 7, 7, 256)    262400      block_9_relu_2[0][0]             \n","__________________________________________________________________________________________________\n","block_10_bn_0 (BatchNormalizati (None, 7, 7, 256)    1024        block_10_cv_0[0][0]              \n","__________________________________________________________________________________________________\n","block_10_relu_0 (Activation)    (None, 7, 7, 256)    0           block_10_bn_0[0][0]              \n","__________________________________________________________________________________________________\n","block_10_cv_1 (Conv2D)          (None, 7, 7, 256)    590080      block_10_relu_0[0][0]            \n","__________________________________________________________________________________________________\n","block_10_bn_1 (BatchNormalizati (None, 7, 7, 256)    1024        block_10_cv_1[0][0]              \n","__________________________________________________________________________________________________\n","block_10_relu_1 (Activation)    (None, 7, 7, 256)    0           block_10_bn_1[0][0]              \n","__________________________________________________________________________________________________\n","block_10_cv_2 (Conv2D)          (None, 7, 7, 1024)   263168      block_10_relu_1[0][0]            \n","__________________________________________________________________________________________________\n","block_10_bn_2 (BatchNormalizati (None, 7, 7, 1024)   4096        block_10_cv_2[0][0]              \n","__________________________________________________________________________________________________\n","add_10 (Add)                    (None, 7, 7, 1024)   0           block_10_bn_2[0][0]              \n","                                                                 block_9_relu_2[0][0]             \n","__________________________________________________________________________________________________\n","block_10_relu_2 (Activation)    (None, 7, 7, 1024)   0           add_10[0][0]                     \n","__________________________________________________________________________________________________\n","block_11_cv_0 (Conv2D)          (None, 7, 7, 256)    262400      block_10_relu_2[0][0]            \n","__________________________________________________________________________________________________\n","block_11_bn_0 (BatchNormalizati (None, 7, 7, 256)    1024        block_11_cv_0[0][0]              \n","__________________________________________________________________________________________________\n","block_11_relu_0 (Activation)    (None, 7, 7, 256)    0           block_11_bn_0[0][0]              \n","__________________________________________________________________________________________________\n","block_11_cv_1 (Conv2D)          (None, 7, 7, 256)    590080      block_11_relu_0[0][0]            \n","__________________________________________________________________________________________________\n","block_11_bn_1 (BatchNormalizati (None, 7, 7, 256)    1024        block_11_cv_1[0][0]              \n","__________________________________________________________________________________________________\n","block_11_relu_1 (Activation)    (None, 7, 7, 256)    0           block_11_bn_1[0][0]              \n","__________________________________________________________________________________________________\n","block_11_cv_2 (Conv2D)          (None, 7, 7, 1024)   263168      block_11_relu_1[0][0]            \n","__________________________________________________________________________________________________\n","block_11_bn_2 (BatchNormalizati (None, 7, 7, 1024)   4096        block_11_cv_2[0][0]              \n","__________________________________________________________________________________________________\n","add_11 (Add)                    (None, 7, 7, 1024)   0           block_11_bn_2[0][0]              \n","                                                                 block_10_relu_2[0][0]            \n","__________________________________________________________________________________________________\n","block_11_relu_2 (Activation)    (None, 7, 7, 1024)   0           add_11[0][0]                     \n","__________________________________________________________________________________________________\n","block_12_cv_0 (Conv2D)          (None, 7, 7, 256)    262400      block_11_relu_2[0][0]            \n","__________________________________________________________________________________________________\n","block_12_bn_0 (BatchNormalizati (None, 7, 7, 256)    1024        block_12_cv_0[0][0]              \n","__________________________________________________________________________________________________\n","block_12_relu_0 (Activation)    (None, 7, 7, 256)    0           block_12_bn_0[0][0]              \n","__________________________________________________________________________________________________\n","block_12_cv_1 (Conv2D)          (None, 7, 7, 256)    590080      block_12_relu_0[0][0]            \n","__________________________________________________________________________________________________\n","block_12_bn_1 (BatchNormalizati (None, 7, 7, 256)    1024        block_12_cv_1[0][0]              \n","__________________________________________________________________________________________________\n","block_12_relu_1 (Activation)    (None, 7, 7, 256)    0           block_12_bn_1[0][0]              \n","__________________________________________________________________________________________________\n","block_12_cv_2 (Conv2D)          (None, 7, 7, 1024)   263168      block_12_relu_1[0][0]            \n","__________________________________________________________________________________________________\n","block_12_bn_2 (BatchNormalizati (None, 7, 7, 1024)   4096        block_12_cv_2[0][0]              \n","__________________________________________________________________________________________________\n","add_12 (Add)                    (None, 7, 7, 1024)   0           block_12_bn_2[0][0]              \n","                                                                 block_11_relu_2[0][0]            \n","__________________________________________________________________________________________________\n","block_12_relu_2 (Activation)    (None, 7, 7, 1024)   0           add_12[0][0]                     \n","__________________________________________________________________________________________________\n","block_13_cv_0 (Conv2D)          (None, 7, 7, 256)    262400      block_12_relu_2[0][0]            \n","__________________________________________________________________________________________________\n","block_13_bn_0 (BatchNormalizati (None, 7, 7, 256)    1024        block_13_cv_0[0][0]              \n","__________________________________________________________________________________________________\n","block_13_relu_0 (Activation)    (None, 7, 7, 256)    0           block_13_bn_0[0][0]              \n","__________________________________________________________________________________________________\n","block_13_cv_1 (Conv2D)          (None, 7, 7, 256)    590080      block_13_relu_0[0][0]            \n","__________________________________________________________________________________________________\n","block_13_bn_1 (BatchNormalizati (None, 7, 7, 256)    1024        block_13_cv_1[0][0]              \n","__________________________________________________________________________________________________\n","block_13_relu_1 (Activation)    (None, 7, 7, 256)    0           block_13_bn_1[0][0]              \n","__________________________________________________________________________________________________\n","block_13_cv_2 (Conv2D)          (None, 7, 7, 1024)   263168      block_13_relu_1[0][0]            \n","__________________________________________________________________________________________________\n","block_13_bn_2 (BatchNormalizati (None, 7, 7, 1024)   4096        block_13_cv_2[0][0]              \n","__________________________________________________________________________________________________\n","add_13 (Add)                    (None, 7, 7, 1024)   0           block_13_bn_2[0][0]              \n","                                                                 block_12_relu_2[0][0]            \n","__________________________________________________________________________________________________\n","block_13_relu_2 (Activation)    (None, 7, 7, 1024)   0           add_13[0][0]                     \n","__________________________________________________________________________________________________\n","block_14_cv_0 (Conv2D)          (None, 4, 4, 512)    524800      block_13_relu_2[0][0]            \n","__________________________________________________________________________________________________\n","block_14_bn_0 (BatchNormalizati (None, 4, 4, 512)    2048        block_14_cv_0[0][0]              \n","__________________________________________________________________________________________________\n","block_14_relu_0 (Activation)    (None, 4, 4, 512)    0           block_14_bn_0[0][0]              \n","__________________________________________________________________________________________________\n","block_14_cv_1 (Conv2D)          (None, 4, 4, 512)    2359808     block_14_relu_0[0][0]            \n","__________________________________________________________________________________________________\n","block_14_bn_1 (BatchNormalizati (None, 4, 4, 512)    2048        block_14_cv_1[0][0]              \n","__________________________________________________________________________________________________\n","block_14_relu_1 (Activation)    (None, 4, 4, 512)    0           block_14_bn_1[0][0]              \n","__________________________________________________________________________________________________\n","block_14_cv_2 (Conv2D)          (None, 4, 4, 2048)   1050624     block_14_relu_1[0][0]            \n","__________________________________________________________________________________________________\n","block_14_cv_skip (Conv2D)       (None, 4, 4, 2048)   2099200     block_13_relu_2[0][0]            \n","__________________________________________________________________________________________________\n","block_14_bn_2 (BatchNormalizati (None, 4, 4, 2048)   8192        block_14_cv_2[0][0]              \n","__________________________________________________________________________________________________\n","block_14_bn_skip (BatchNormaliz (None, 4, 4, 2048)   8192        block_14_cv_skip[0][0]           \n","__________________________________________________________________________________________________\n","add_14 (Add)                    (None, 4, 4, 2048)   0           block_14_bn_2[0][0]              \n","                                                                 block_14_bn_skip[0][0]           \n","__________________________________________________________________________________________________\n","block_14_relu_2 (Activation)    (None, 4, 4, 2048)   0           add_14[0][0]                     \n","__________________________________________________________________________________________________\n","block_15_cv_0 (Conv2D)          (None, 4, 4, 512)    1049088     block_14_relu_2[0][0]            \n","__________________________________________________________________________________________________\n","block_15_bn_0 (BatchNormalizati (None, 4, 4, 512)    2048        block_15_cv_0[0][0]              \n","__________________________________________________________________________________________________\n","block_15_relu_0 (Activation)    (None, 4, 4, 512)    0           block_15_bn_0[0][0]              \n","__________________________________________________________________________________________________\n","block_15_cv_1 (Conv2D)          (None, 4, 4, 512)    2359808     block_15_relu_0[0][0]            \n","__________________________________________________________________________________________________\n","block_15_bn_1 (BatchNormalizati (None, 4, 4, 512)    2048        block_15_cv_1[0][0]              \n","__________________________________________________________________________________________________\n","block_15_relu_1 (Activation)    (None, 4, 4, 512)    0           block_15_bn_1[0][0]              \n","__________________________________________________________________________________________________\n","block_15_cv_2 (Conv2D)          (None, 4, 4, 2048)   1050624     block_15_relu_1[0][0]            \n","__________________________________________________________________________________________________\n","block_15_bn_2 (BatchNormalizati (None, 4, 4, 2048)   8192        block_15_cv_2[0][0]              \n","__________________________________________________________________________________________________\n","add_15 (Add)                    (None, 4, 4, 2048)   0           block_15_bn_2[0][0]              \n","                                                                 block_14_relu_2[0][0]            \n","__________________________________________________________________________________________________\n","block_15_relu_2 (Activation)    (None, 4, 4, 2048)   0           add_15[0][0]                     \n","__________________________________________________________________________________________________\n","block_16_cv_0 (Conv2D)          (None, 4, 4, 512)    1049088     block_15_relu_2[0][0]            \n","__________________________________________________________________________________________________\n","block_16_bn_0 (BatchNormalizati (None, 4, 4, 512)    2048        block_16_cv_0[0][0]              \n","__________________________________________________________________________________________________\n","block_16_relu_0 (Activation)    (None, 4, 4, 512)    0           block_16_bn_0[0][0]              \n","__________________________________________________________________________________________________\n","block_16_cv_1 (Conv2D)          (None, 4, 4, 512)    2359808     block_16_relu_0[0][0]            \n","__________________________________________________________________________________________________\n","block_16_bn_1 (BatchNormalizati (None, 4, 4, 512)    2048        block_16_cv_1[0][0]              \n","__________________________________________________________________________________________________\n","block_16_relu_1 (Activation)    (None, 4, 4, 512)    0           block_16_bn_1[0][0]              \n","__________________________________________________________________________________________________\n","block_16_cv_2 (Conv2D)          (None, 4, 4, 2048)   1050624     block_16_relu_1[0][0]            \n","__________________________________________________________________________________________________\n","block_16_bn_2 (BatchNormalizati (None, 4, 4, 2048)   8192        block_16_cv_2[0][0]              \n","__________________________________________________________________________________________________\n","add_16 (Add)                    (None, 4, 4, 2048)   0           block_16_bn_2[0][0]              \n","                                                                 block_15_relu_2[0][0]            \n","__________________________________________________________________________________________________\n","block_16_relu_2 (Activation)    (None, 4, 4, 2048)   0           add_16[0][0]                     \n","__________________________________________________________________________________________________\n","average_pooling2d_1 (AveragePoo (None, 2, 2, 2048)   0           block_16_relu_2[0][0]            \n","__________________________________________________________________________________________________\n","flatten_1 (Flatten)             (None, 8192)         0           average_pooling2d_1[0][0]        \n","__________________________________________________________________________________________________\n","features_dense_0 (Dense)        (None, 128)          1048704     flatten_1[0][0]                  \n","__________________________________________________________________________________________________\n","features_bn_0 (BatchNormalizati (None, 128)          512         features_dense_0[0][0]           \n","__________________________________________________________________________________________________\n","features_relu_0 (Activation)    (None, 128)          0           features_bn_0[0][0]              \n","==================================================================================================\n","Total params: 24,636,928\n","Trainable params: 1,048,960\n","Non-trainable params: 23,587,968\n","__________________________________________________________________________________________________\n"],"name":"stdout"}]},{"metadata":{"id":"3TtTYtI52
…
